Processed: https://media.plivo.com/v1/Account/MAYWQZMDLMMTY0YZHINJ/Recording/0eaa572d-3756-490d-b9ab-b7647887360f.mp3 in 6.434528017044068 minutes using Whisper(
  (encoder): AudioEncoder(
    (conv1): Conv1d(80, 768, kernel_size=(3,), stride=(1,), padding=(1,))
    (conv2): Conv1d(768, 768, kernel_size=(3,), stride=(2,), padding=(1,))
    (blocks): ModuleList(
      (0-11): 12 x ResidualAttentionBlock(
        (attn): MultiHeadAttention(
          (query): Linear(in_features=768, out_features=768, bias=True)
          (key): Linear(in_features=768, out_features=768, bias=False)
          (value): Linear(in_features=768, out_features=768, bias=True)
          (out): Linear(in_features=768, out_features=768, bias=True)
        )
        (attn_ln): LayerNorm((768,), eps=1e-05, elementwise_affine=True)
        (mlp): Sequential(
          (0): Linear(in_features=768, out_features=3072, bias=True)
          (1): GELU(approximate='none')
          (2): Linear(in_features=3072, out_features=768, bias=True)
        )
        (mlp_ln): LayerNorm((768,), eps=1e-05, elementwise_affine=True)
      )
    )
    (ln_post): LayerNorm((768,), eps=1e-05, elementwise_affine=True)
  )
  (decoder): TextDecoder(
    (token_embedding): Embedding(51865, 768)
    (blocks): ModuleList(
      (0-11): 12 x ResidualAttentionBlock(
        (attn): MultiHeadAttention(
          (query): Linear(in_features=768, out_features=768, bias=True)
          (key): Linear(in_features=768, out_features=768, bias=False)
          (value): Linear(in_features=768, out_features=768, bias=True)
          (out): Linear(in_features=768, out_features=768, bias=True)
        )
        (attn_ln): LayerNorm((768,), eps=1e-05, elementwise_affine=True)
        (cross_attn): MultiHeadAttention(
          (query): Linear(in_features=768, out_features=768, bias=True)
          (key): Linear(in_features=768, out_features=768, bias=False)
          (value): Linear(in_features=768, out_features=768, bias=True)
          (out): Linear(in_features=768, out_features=768, bias=True)
        )
        (cross_attn_ln): LayerNorm((768,), eps=1e-05, elementwise_affine=True)
        (mlp): Sequential(
          (0): Linear(in_features=768, out_features=3072, bias=True)
          (1): GELU(approximate='none')
          (2): Linear(in_features=3072, out_features=768, bias=True)
        )
        (mlp_ln): LayerNorm((768,), eps=1e-05, elementwise_affine=True)
      )
    )
    (ln): LayerNorm((768,), eps=1e-05, elementwise_affine=True)
  )
) model

Transcript: SPEAKER_01: We are dialing out.
 SPEAKER_00: Hello, this is Brian and I'm calling today on behalf of EWS.  Can I have a word with Lisa Roth?
 SPEAKER_01: I'm sorry, can you say who you're from again?
 SPEAKER_00: I'm from Amazon Web Services, AWS.
 SPEAKER_01: And what is this in regard to?
 SPEAKER_00: Sure, this is in regards to one free consultation that like Amazon Web Services wants to provide Lisa Roth because Lisa is already using AWS.  She's the customer with us.  So that's the purpose of my call.
…
 SPEAKER_01: Oh, yeah, you see my LinkedIn?  Okay.
 SPEAKER_00: So that is the reason I'm calling you today because A.W.S. would like to discuss an exciting  opportunity for small and medium businesses like yours to explore.
 SPEAKER_01: I got it.  Very, very, very well about A.W.S.  Don't need something right now, but I appreciate it, but definitely aware.  So thank you.

Time taken: 9.359895606835684 minutes


Processed: https://media.plivo.com/v1/Account/MAYWQZMDLMMTY0YZHINJ/Recording/3d8122f5-e765-4afe-8baa-fc691d550bdb.mp3 in 39.84296007553736 minutes using Whisper(
  (encoder): AudioEncoder(
    (conv1): Conv1d(80, 768, kernel_size=(3,), stride=(1,), padding=(1,))
    (conv2): Conv1d(768, 768, kernel_size=(3,), stride=(2,), padding=(1,))
    (blocks): ModuleList(
      (0-11): 12 x ResidualAttentionBlock(
        (attn): MultiHeadAttention(
          (query): Linear(in_features=768, out_features=768, bias=True)
          (key): Linear(in_features=768, out_features=768, bias=False)
          (value): Linear(in_features=768, out_features=768, bias=True)
          (out): Linear(in_features=768, out_features=768, bias=True)
        )
        (attn_ln): LayerNorm((768,), eps=1e-05, elementwise_affine=True)
        (mlp): Sequential(
          (0): Linear(in_features=768, out_features=3072, bias=True)
          (1): GELU(approximate='none')
          (2): Linear(in_features=3072, out_features=768, bias=True)
        )
        (mlp_ln): LayerNorm((768,), eps=1e-05, elementwise_affine=True)
      )
    )
    (ln_post): LayerNorm((768,), eps=1e-05, elementwise_affine=True)
  )
  (decoder): TextDecoder(
    (token_embedding): Embedding(51865, 768)
    (blocks): ModuleList(
      (0-11): 12 x ResidualAttentionBlock(
        (attn): MultiHeadAttention(
          (query): Linear(in_features=768, out_features=768, bias=True)
          (key): Linear(in_features=768, out_features=768, bias=False)
          (value): Linear(in_features=768, out_features=768, bias=True)
          (out): Linear(in_features=768, out_features=768, bias=True)
        )
        (attn_ln): LayerNorm((768,), eps=1e-05, elementwise_affine=True)
        (cross_attn): MultiHeadAttention(
          (query): Linear(in_features=768, out_features=768, bias=True)
          (key): Linear(in_features=768, out_features=768, bias=False)
          (value): Linear(in_features=768, out_features=768, bias=True)
          (out): Linear(in_features=768, out_features=768, bias=True)
        )
        (cross_attn_ln): LayerNorm((768,), eps=1e-05, elementwise_affine=True)
        (mlp): Sequential(
          (0): Linear(in_features=768, out_features=3072, bias=True)
          (1): GELU(approximate='none')
          (2): Linear(in_features=3072, out_features=768, bias=True)
        )
        (mlp_ln): LayerNorm((768,), eps=1e-05, elementwise_affine=True)
      )
    )
    (ln): LayerNorm((768,), eps=1e-05, elementwise_affine=True)
  )
) model

Transcript: Unknown Speaker: We are dialing out.
 SPEAKER_01: Hello?  I am not.  Can you help me understand where do you work right now?
 SPEAKER_00: What do you want me to help you with?
 SPEAKER_01: Where do you work?
 SPEAKER_00: Where we work?  Different?  What is the question?
 SPEAKER_01: I wanted to reach out to you to help you with a free consultation of AI.  You can have an AI.
 SPEAKER_00: We don't need any free consultation.  Thank you so much.  Nothing is free.  Thank you so much.  You have a wonderful day.

Time taken: 39.84296007553736 minutes


Processed: https://media.plivo.com/v1/Account/MAYWQZMDLMMTY0YZHINJ/Recording/384adf50-5d6a-41d4-951e-104a3b435a36.mp3 in 15.71331290801366 minutes using Whisper(
  (encoder): AudioEncoder(
    (conv1): Conv1d(80, 768, kernel_size=(3,), stride=(1,), padding=(1,))
    (conv2): Conv1d(768, 768, kernel_size=(3,), stride=(2,), padding=(1,))
    (blocks): ModuleList(
      (0-11): 12 x ResidualAttentionBlock(
        (attn): MultiHeadAttention(
          (query): Linear(in_features=768, out_features=768, bias=True)
          (key): Linear(in_features=768, out_features=768, bias=False)
          (value): Linear(in_features=768, out_features=768, bias=True)
          (out): Linear(in_features=768, out_features=768, bias=True)
        )
        (attn_ln): LayerNorm((768,), eps=1e-05, elementwise_affine=True)
        (mlp): Sequential(
          (0): Linear(in_features=768, out_features=3072, bias=True)
          (1): GELU(approximate='none')
          (2): Linear(in_features=3072, out_features=768, bias=True)
        )
        (mlp_ln): LayerNorm((768,), eps=1e-05, elementwise_affine=True)
      )
    )
    (ln_post): LayerNorm((768,), eps=1e-05, elementwise_affine=True)
  )
  (decoder): TextDecoder(
    (token_embedding): Embedding(51865, 768)
    (blocks): ModuleList(
      (0-11): 12 x ResidualAttentionBlock(
        (attn): MultiHeadAttention(
          (query): Linear(in_features=768, out_features=768, bias=True)
          (key): Linear(in_features=768, out_features=768, bias=False)
          (value): Linear(in_features=768, out_features=768, bias=True)
          (out): Linear(in_features=768, out_features=768, bias=True)
        )
        (attn_ln): LayerNorm((768,), eps=1e-05, elementwise_affine=True)
        (cross_attn): MultiHeadAttention(
          (query): Linear(in_features=768, out_features=768, bias=True)
          (key): Linear(in_features=768, out_features=768, bias=False)
          (value): Linear(in_features=768, out_features=768, bias=True)
          (out): Linear(in_features=768, out_features=768, bias=True)
        )
        (cross_attn_ln): LayerNorm((768,), eps=1e-05, elementwise_affine=True)
        (mlp): Sequential(
          (0): Linear(in_features=768, out_features=3072, bias=True)
          (1): GELU(approximate='none')
          (2): Linear(in_features=3072, out_features=768, bias=True)
        )
        (mlp_ln): LayerNorm((768,), eps=1e-05, elementwise_affine=True)
      )
    )
    (ln): LayerNorm((768,), eps=1e-05, elementwise_affine=True)
  )
) model

Transcript: SPEAKER_01: We are dialing out.  Hello.
 SPEAKER_00: Hello.  Good morning MSP.  Ms. Sam Puer.
 SPEAKER_01: Speaking.
 SPEAKER_00: Hi, Sam.  This is Treno.  I'm calling you on behalf of Amazon Web Services, AWS.  How are you doing today?
 SPEAKER_01: Yeah, I'm doing well.  Thank you.
 Speaker SPEAKER_00: Perfect. Unknown Speaker: 
…
